saved_models/iris_run/model.pt (torch, 3401 bytes, 4 tensors)

model.layer_0.weight f4 [32, 4]
000000 a0 b2 cd be f4 a9 98 3e f0 cf 3e bd ce a6 cd 3e
       -0.40175343 0.29817164 -0.046585023 0.40166324
000010 e4 37 e6 be d6 70 d5 be 48 14 a6 3d 84 50 92 be
       -0.44964516 -0.4168765 0.08109337 -0.28577054
000020 e4 36 ee 3d ea ca 3e be 5d 04 44 3d 9c 86 e1 3e
       0.11631563 -0.18632093 0.047855724 0.4404801
000030 16 36 63 3d 5d 0e 2d be 2a e9 3a bd 38 34 8c 3e
       0.055471502 -0.1690001 -0.04563252 0.2738359
000040 12 3f 93 be fc 38 a4 be f4 8f 05 3e 64 7e 8f 3e
       -0.28759056 -0.32074726 0.13043195 0.28026116
000050 84 7a 9b be 40 d8 86 bd e0 87 cd 3c 42 aa 93 be
       -0.3036691 -0.06584215 0.025089204 -0.28840834
000060 50 59 97 3d 96 7c 47 3e ab d4 90 bd f5 7d 92 bc
       0.07390082 0.1948112 -0.07071813 -0.017882327
000070 ac 4d 9d be 21 a3 7a 3e b0 d8 80 3e a8 39 d9 3e
       -0.3072332 0.24476291 0.2516532 0.424268
000080 d0 30 ba 3d 82 94 d5 3d 4b f2 e3 bd c1 0d 36 3e
       0.090913415 0.10428716 -0.11130198 0.17778684
000090 11 41 8e 3e 9f 72 93 be 84 ab 67 3e 9a 56 4b 3e
       0.27784017 -0.28798386 0.22624022 0.19857255
0000a0 59 57 4e 3e 9f 3d 6a be 17 12 0b 3e e5 ce 96 be
       0.20150508 -0.22875069 0.1358112 -0.29454723
0000b0 66 21 d5 be 6c 94 27 3e a0 18 8e 3c 58 d2 7c 3e
       -0.41627043 0.16365212 0.017345726 0.24689615
0000c0 98 c1 9d 3e d5 40 44 3e 7b 29 71 3e 1a 31 23 3e
       0.30811763 0.19165356 0.2355098 0.159367
0000d0 ee d5 f1 be 35 c3 a1 3e 53 83 c6 3e 95 85 a1 3e
       -0.47233528 0.31594244 0.38772067 0.31547228
0000e0 e2 d6 ba be f8 dc a3 bd 90 39 0e 3e 72 76 f0 be
       -0.36492068 -0.08001131 0.13889146 -0.46965367
0000f0 a3 05 99 bc 0e ec 55 3e ce cf 8f be a5 60 74 be
       -0.018679446 0.20890829 -0.2808823 -0.23864992
000100 9e 08 a3 be 82 71 ab 3e e0 5f ca bc bc 12 6c 3e
       -0.31842512 0.33485037 -0.02470392 0.23054022
000110 f8 b5 9b be a8 7a 99 bd 8c 3f 7e be 80 20 f2 bc
       -0.3041227 -0.07494098 -0.24828929 -0.029556513
000120 fc cc 33 3e ec 21 c9 3e bf 09 91 be 1c da 02 3e
       0.17558664 0.39283693 -0.28327748 0.12778515
000130 c8 7e c2 3e bf 47 dd be 94 71 bd be 31 51 2f be
       0.3798735 -0.432188 -0.37000716 -0.17120816
000140 d7 6b 65 3d 89 d9 04 3e 6d b8 5b be a4 50 a6 be
       0.056011047 0.12973608 -0.21457072 -0.324834
000150 1d 8f 01 3f cd bb 28 be df 13 3d be b8 de b4 bd
       0.50609 -0.1647789 -0.18464611 -0.08831543
000160 8d e2 59 be db de f1 3e 91 57 06 3e ce 03 29 bd
       -0.21277829 0.47240338 0.13119341 -0.041263394
000170 5d 02 43 be 39 1b d4 3e f0 58 09 be 86 ac 6b 3e
       -0.1904387 0.4142702 -0.13412833 0.23015031
000180 1d 0f 90 3e f1 9b ab 3d b8 a7 d7 3e 82 4b ef be
       0.2813653 0.08379353 0.42120147 -0.46737295
000190 e3 c1 05 be d2 ff a2 3e fa db df be 00 48 53 be
       -0.13062243 0.318358 -0.43722516 -0.20632935
0001a0 b3 86 b3 3e 7d 09 c7 3e e4 85 a3 3e ab e9 ce 3d
       0.35063705 0.38874426 0.31938088 0.101031624
0001b0 ed 41 ee 3e 32 66 59 be 9b b5 07 3d 28 5c d6 be
       0.46534672 -0.2123039 0.033132177 -0.41867185
0001c0 49 c4 a2 3e 15 bd f6 bd 02 ef 00 3f fe 5d 06 be
       0.3179038 -0.12047783 0.50364697 -0.13121793
0001d0 eb 75 8f 3d 81 1c cf be 6a 67 35 3e 65 3b 91 bd
       0.07004913 -0.40451434 0.1771523 -0.07091407
0001e0 2f b3 3a 3e f8 c9 b5 3d 2e a2 e1 3e 24 95 f6 3d
       0.18232416 0.08876413 0.44069046 0.12040165
0001f0 28 78 dd be 4c 03 43 be 24 81 b8 be 80 ee c8 be
       -0.43255734 -0.19044226 -0.36036026 -0.3924446

model.layer_0.bias f4 [32]
000000 d6 b6 e1 be d6 79 f7 3e aa 68 b6 3e 13 19 36 3e
       -0.44084805 0.4833514 0.35626727 0.17783003
000010 60 2e c2 be f8 fd 9f 3d 0c 12 ae 3e ed e2 3c 3e
       -0.37926006 0.078121126 0.33998144 0.1844594
000020 91 f7 ab 3d 9f 96 ce 3e cd 97 c9 bc a0 02 b1 bc
       0.08396829 0.4034929 -0.024608517 -0.021607697
000030 da 25 1f be b1 1e 89 be 6c b5 e2 be 91 ed c5 3e
       -0.15541783 -0.26781228 -0.4427904 0.3865781
000040 00 e7 84 3b dc db 6f be 7b 4f a9 be 37 d3 42 bd
       0.0040558577 -0.23423713 -0.3306845 -0.04756471
000050 dc 5f c6 3e ee 64 18 bd 9d 99 09 be f9 13 fe 3d
       0.3874501 -0.03720563 -0.13437505 0.12406153
000060 02 93 8d be 9b 58 91 3e 2c 3f ce be 5b c5 ad 3c
       -0.2765122 0.28387913 -0.4028257 0.02121227
000070 0d b0 0f 3e 57 a2 88 be 2a 8d 91 bd f0 47 15 3d
       0.14032002 -0.26686355 -0.07107003 0.036445558

model.layer_1.weight f4 [3, 32]
000000 fd 1d 15 be d1 43 02 bd 4e 30 40 3d 06 2e ca bc
       -0.14562221 -0.031802956 0.046921067 -0.024680149
000010 f0 70 27 3e fd 50 b0 bd 7a 8d d8 3c b7 7f 30 be
       0.16351676 -0.08609197 0.026434649 -0.1723622
000020 a5 90 18 be be fe ca bd e0 11 a3 3c f8 97 85 bd
       -0.14898928 -0.099118695 0.019905984 -0.06523126
000030 b8 b1 c0 3d 7b 27 f2 bc a0 57 33 3d 40 97 16 3e
       0.09408897 -0.029559841 0.043784738 0.14706135
000040 e3 23 23 3e 7b 83 bb bd 67 b1 1c 3e af 1c 22 be
       0.15931658 -0.09155937 0.15302049 -0.15831254
000050 ea 0e 86 3d a9 da 80 bd 4b 1e 13 bd 02 70 0d 3e
       0.065458134 -0.06291706 -0.03591756 0.13812259
000060 be e6 d5 3d 31 8d b6 bb 9c f6 31 be 68 55 ae 3d
       0.10444401 -0.0055710305 -0.1737923 0.08512384
000070 c2 64 fd bd 7c e7 e8 3d 3e 79 8e 3c 86 43 4f 3c
       -0.12372734 0.11372277 0.017391797 0.012650376
000080 2b a1 2e 3e ce 6b fe 3d 56 11 02 3e 32 d1 bd bd
       0.17053668 0.12422906 0.12701926 -0.092684165
000090 d1 83 28 be 16 c1 ca bc f1 ce 26 be 84 49 bf 3d
       -0.16456534 -0.024750274 -0.1628988 0.09340194
0000a0 ce 2f a8 bd 84 be a9 bd a7 25 ee 3d 45 b4 80 3d
       -0.08212243 -0.08288291 0.11628275 0.06284384
0000b0 1a 05 74 bd 5a 80 1c be ea ae c3 3d 59 15 41 be
       -0.059575178 -0.15283337 0.095548466 -0.188558
0000c0 1e a7 06 be 69 c0 0c 3e 55 03 98 bd 01 4b 73 bd
       -0.13149688 0.13745274 -0.074225105 -0.0593977
0000d0 37 1b 48 bc 1c 23 1d 3e be f6 0f be 04 78 7a 3d
       -0.01221352 0.15345424 -0.14058968 0.061149612
0000e0 67 e0 ae bd c7 0a 8e 3d be 8b 25 bd 58 8a 0e 3e
       -0.08538895 0.06935649 -0.04041647 0.13919961
0000f0 8b 1d 21 be 8a d8 2a be 77 a8 32 3e 05 e9 45 3d
       -0.15733926 -0.16684166 0.17447077 0.048317928
000100 21 09 06 3d 85 78 16 be eb b5 24 bd 21 7d f2 3d
       0.03272355 -0.14694412 -0.040212553 0.11840273
000110 30 7a 26 3e d7 dc 06 bd 9a 94 2f be d7 04 f4 bd
       0.16257548 -0.032925453 -0.17146531 -0.119149856
000120 e4 30 34 be b3 a3 40 bd aa b8 1c 3d 58 52 2d 3e
       -0.17596775 -0.047031116 0.038262047 0.16925943
000130 04 82 09 bd fa 66 8d bd 3d 88 b5 bd 8a b5 06 be
       -0.03357126 -0.06904407 -0.08863876 -0.13155189
000140 4b 7f 26 3d da 09 83 bb f5 c2 2f be d6 92 95 bc
       0.04064874 -0.003998977 -0.17164214 -0.018258493
000150 bc 62 7a 3d 8f 8a 18 3e 1d 09 06 3e ec 57 4d 3d
       0.061129317 0.14896606 0.13089414 0.050132677
000160 58 94 ae 3d a9 24 9c 3d b3 de 13 be ec 4c 7a bd
       0.08524388 0.0762418 -0.14440422 -0.061108515
000170 bf 58 d0 3d 44 65 79 b9 87 63 3e 3e 27 66 2a 3e
       0.10173177 -0.00023784215 0.18592654 0.1664053

model.layer_1.bias f4 [3]
000000 1d b1 c7 3d 53 c1 e4 3b e6 63 14 bd
       0.097505786 0.006981054 -0.036228083
